Models/ei-skg_1st-nn-classifier-tensorflow-lite-int8-quantized-model.lite (tflite, 3128 bytes, 3 tensors)

sequential/dense/MatMul i1 [20, 33] scale=0.00484319 zero_point=0
000000 a0 0c a8 23 0e 22 e8 b3 85 ce 0f f8 0f 55 2e 4e
       -0.4649462 0.058118276 -0.42620072 0.16951165 0.06780466 0.16466846 -0.11623655 -0.3729256 -0.59571236 -0.24215949 0.07264785 -0.03874552 0.07264785 0.41167113 0.22278674 0.3777688
000010 32 e3 4d d8 3c cd 71 10 0a 01 dd 2c f8 18 f2 dd
       0.24215949 -0.1404525 0.3729256 -0.1937276 0.2905914 -0.24700268 0.54728043 0.07749104 0.0484319 0.00484319 -0.16951165 0.21310036 -0.03874552 0.11623655 -0.06780466 -0.16951165
000020 23 4f 47 47 27 45 50 37 51 0f 62 52 1e 26 01 07
       0.16951165 0.382612 0.34386647 0.34386647 0.1888844 0.3341801 0.3874552 0.26637545 0.39229837 0.07264785 0.4746326 0.39714158 0.1452957 0.18404122 0.00484319 0.03390233
000030 0e f0 c9 68 56 24 0b 09 11 55 04 34 21 d8 32 73
       0.06780466 -0.07749104 -0.26637545 0.50369173 0.41651434 0.17435484 0.05327509 0.04358871 0.08233423 0.41167113 0.01937276 0.25184587 0.15982527 -0.1937276 0.24215949 0.55696684
000040 66 e7 db a4 9c 0d ff 03 c2 db a6 bf ce 18 d5 f0
       0.49400535 -0.12107974 -0.17919803 -0.44557348 -0.48431897 0.06296147 -0.00484319 0.014529569 -0.30027777 -0.17919803 -0.4358871 -0.31480733 -0.24215949 0.11623655 -0.20825717 -0.07749104
000050 12 b8 f4 04 35 cd 20 eb 17 1a 07 0f 0a f7 e3 08
       0.08717742 -0.34870967 -0.058118276 0.01937276 0.25668907 -0.24700268 0.15498208 -0.10170699 0.11139337 0.12592293 0.03390233 0.07264785 0.0484319 -0.04358871 -0.1404525 0.03874552
000060 09 18 d3 9d ff a6 1b 0a 0d cf f3 e6 1e e4 c6 17
       0.04358871 0.11623655 -0.21794355 -0.4794758 -0.00484319 -0.4358871 0.13076612 0.0484319 0.06296147 -0.2373163 -0.06296147 -0.12592293 0.1452957 -0.13560931 -0.280905 0.11139337
000070 1e 04 e2 f7 ff 4d 1e ac cf 4e 13 ff 36 0f ef 43
       0.1452957 0.01937276 -0.1452957 -0.04358871 -0.00484319 0.3729256 0.1452957 -0.40682796 -0.2373163 0.3777688 0.09202061 -0.00484319 0.26153225 0.07264785 -0.08233423 0.3244937
000080 23 ff 2a 0b ea 0a b2 09 01 23 b4 e5 f9 f4 0c 09
       0.16951165 -0.00484319 0.20341398 0.05327509 -0.10655018 0.0484319 -0.3777688 0.04358871 0.00484319 0.16951165 -0.36808243 -0.13076612 -0.03390233 -0.058118276 0.058118276 0.04358871
000090 ee e5 c3 fb df e2 0b 01 00 e0 dd 16 e9 da 30 14
       -0.08717742 -0.13076612 -0.2954346 -0.02421595 -0.15982527 -0.1452957 0.05327509 0.00484319 0.0 -0.15498208 -0.16951165 0.10655018 -0.11139337 -0.18404122 0.2324731 0.0968638
0000a0 36 f7 f6 ce d4 3b f7 06 07 0c f9 01 2b 07 b6 f0
       0.26153225 -0.04358871 -0.0484319 -0.24215949 -0.21310036 0.2857482 -0.04358871 0.029059138 0.03390233 0.058118276 -0.03390233 0.00484319 0.20825717 0.03390233 -0.35839605 -0.07749104
0000b0 e5 49 cf 3d 1a ee 27 22 1b c2 c9 d5 05 a9 1c 04
       -0.13076612 0.35355285 -0.2373163 0.2954346 0.12592293 -0.08717742 0.1888844 0.16466846 0.13076612 -0.30027777 -0.26637545 -0.20825717 0.02421595 -0.4213575 0.13560931 0.01937276
0000c0 e7 27 ff fa 1f f2 99 56 bc ff eb 08 0f b9 a2 eb
       -0.12107974 0.1888844 -0.00484319 -0.029059138 0.15013888 -0.06780466 -0.49884856 0.41651434 -0.3293369 -0.00484319 -0.10170699 0.03874552 0.07264785 -0.34386647 -0.45525986 -0.10170699
0000d0 90 e0 d9 d7 3a 17 f7 29 30 e0 f9 f5 55 ed 23 08
       -0.54243726 -0.15498208 -0.1888844 -0.19857079 0.280905 0.11139337 -0.04358871 0.19857079 0.2324731 -0.15498208 -0.03390233 -0.05327509 0.41167113 -0.09202061 0.16951165 0.03874552
0000e0 ed fe 17 12 21 e9 de 2c 7a 06 0e e0 28 03 04 54
       -0.09202061 -0.00968638 0.11139337 0.08717742 0.15982527 -0.11139337 -0.16466846 0.21310036 0.5908692 0.029059138 0.06780466 -0.15498208 0.1937276 0.014529569 0.01937276 0.40682796
0000f0 dc 65 fd fa d9 fc 17 1d e4 f2 c9 d6 e3 99 38 c0
       -0.17435484 0.48916218 -0.014529569 -0.029059138 -0.1888844 -0.01937276 0.11139337 0.1404525 -0.13560931 -0.06780466 -0.26637545 -0.20341398 -0.1404525 -0.49884856 0.27121863 -0.30996415

sequential/dense_1/MatMul i1 [10, 20] scale=0.009679069 zero_point=0
000000 e3 fe 0c 06 24 e3 f2 08 d9 d4 f0 e5 25 22 ef ff
       -0.280693 -0.019358138 0.11614883 0.058074415 0.3484465 -0.280693 -0.13550696 0.07743255 -0.3774837 -0.42587903 -0.1548651 -0.26133487 0.35812554 0.32908833 -0.16454417 -0.009679069
000010 d7 04 f0 03 12 17 70 3f 37 22 4e 06 33 ed 13 ce
       -0.39684182 0.038716275 -0.1548651 0.029037207 0.17422324 0.22261858 1.0840557 0.6097813 0.5323488 0.32908833 0.7549674 0.058074415 0.4936325 -0.18390231 0.18390231 -0.48395345
000020 eb da d1 1a 14 4e 10 e6 17 40 62 1b 39 02 42 d9
       -0.20326045 -0.36780462 -0.45491624 0.2516558 0.19358137 0.7549674 0.1548651 -0.2516558 0.22261858 0.6194604 0.94854873 0.26133487 0.5517069 0.019358138 0.63881856 -0.3774837
000030 32 37 e6 de f9 bb fe 11 14 5d ce 05 bd 04 69 e0
       0.48395345 0.5323488 -0.2516558 -0.32908833 -0.06775348 -0.66785574 -0.019358138 0.16454417 0.19358137 0.9001534 -0.48395345 0.048395343 -0.6484976 0.038716275 1.0163022 -0.3097302
000040 37 49 27 71 66 e5 22 18 0b 03 fd 67 12 1c 30 d3
       0.5323488 0.706572 0.3774837 1.0937347 0.987265 -0.26133487 0.32908833 0.23229766 0.10646976 0.029037207 -0.029037207 0.99694407 0.17422324 0.27101392 0.46459532 -0.4355581
000050 e8 2a a2 c6 df 49 d0 4b f5 3f 02 f1 ee 2f 11 1a
       -0.23229766 0.4065209 -0.9098325 -0.561386 -0.31940928 0.706572 -0.46459532 0.72593015 -0.10646976 0.6097813 0.019358138 -0.14518604 -0.17422324 0.45491624 0.16454417 0.2516558
000060 09 b0 47 0a 09 0e dd ff df f3 fa f7 25 c8 d0 20
       0.08711162 -0.7743255 0.6872139 0.096790686 0.08711162 0.13550696 -0.3387674 -0.009679069 -0.31940928 -0.1258279 -0.058074415 -0.08711162 0.35812554 -0.54202783 -0.46459532 0.3097302
000070 d7 0f d6 20 d0 f7 da 17 ef e7 6d 18 3b 1d 02 5a
       -0.39684182 0.14518604 -0.4065209 0.3097302 -0.46459532 -0.08711162 -0.36780462 0.22261858 -0.16454417 -0.24197672 1.0550185 0.23229766 0.57106507 0.280693 0.019358138 0.8711162
000080 3d 15 e9 14 d9 0d f5 2a 06 fe 26 dd ca 5e 81 c0
       0.5904232 0.20326045 -0.22261858 0.19358137 -0.3774837 0.1258279 -0.10646976 0.4065209 0.058074415 -0.019358138 0.36780462 -0.3387674 -0.52266973 0.9098325 -1.2292417 -0.6194604
000090 f4 18 de 04 24 3a 19 44 0f 1b 1a e6 e7 f4 07 28
       -0.11614883 0.23229766 -0.32908833 0.038716275 0.3484465 0.561386 0.24197672 0.65817666 0.14518604 0.26133487 0.2516558 -0.2516558 -0.24197672 -0.11614883 0.06775348 0.38716274
0000a0 be 0e 5f 0c 4a 24 11 17 23 cd 0f 1b 24 31 ec 29
       -0.63881856 0.13550696 0.91951156 0.11614883 0.7162511 0.3484465 0.16454417 0.22261858 0.3387674 -0.4936325 0.14518604 0.26133487 0.3484465 0.47427437 -0.19358137 0.39684182
0000b0 d2 21 1f f8 20 25 2c 3f e3 10 43 d9 20 fb fc 09
       -0.44523716 0.31940928 0.30005112 -0.07743255 0.3097302 0.35812554 0.42587903 0.6097813 -0.280693 0.1548651 0.6484976 -0.3774837 0.3097302 -0.048395343 -0.038716275 0.08711162
0000c0 d4 e6 cc 0d 38 4c e5 2d
       -0.42587903 -0.2516558 -0.5033116 0.1258279 0.54202783 0.73560923 -0.26133487 0.4355581

sequential/y_pred/MatMul i1 [4, 10] scale=0.010793585 zero_point=0
000000 f0 c3 1b ea 07 f5 b1 22 01 1e 21 27 0f 4b ec 0f
       -0.17269737 -0.6584087 0.2914268 -0.23745888 0.0755551 -0.11872944 -0.85269326 0.3669819 0.010793585 0.32380757 0.35618833 0.42094982 0.16190378 0.8095189 -0.2158717 0.16190378
000010 37 c2 25 22 c5 81 9c 47 33 17 23 0d 24 b9 cb 3b
       0.5936472 -0.66920227 0.39936265 0.3669819 -0.6368215 -1.3707854 -1.0793586 0.76634455 0.55047286 0.24825247 0.3777755 0.1403166 0.38856906 -0.76634455 -0.57206005 0.6368215
000020 47 bb df fd d2 bc b8 4d
       0.76634455 -0.7447574 -0.35618833 -0.032380756 -0.49650493 -0.7339638 -0.7771381 0.83110607
